model/model.pth (torch, 16787 bytes, 4 tensors)

linear1.weight f4 [256, 11]
0	0xbe7ca2f6	-0.2467154
1	0x3ea2bc18	0.3178413
2	0xbf2a2321	-0.6645985
3	0xbe995e02	-0.29954535
4	0x3dfb681a	0.12275715
5	0xbcaacfe4	-0.020851083
6	0x3e06d88e	0.13168547
7	0xbf008b22	-0.502123
8	0xbcd95c38	-0.026533231
9	0x3dabb096	0.083832905
10	0xbca90e94	-0.020636834
11	0x3eb8ddfe	0.36106867
12	0x3f01de7a	0.507301
13	0xbecd73cc	-0.40127409
14	0xbe2656bf	-0.16244029
15	0xbeac74d8	-0.33682895
16	0xbe354fc8	-0.17706215
17	0xbce8d196	-0.02842025
18	0x3eee218b	0.46509966
19	0x3ea462c8	0.32106614
20	0x3e0aa33d	0.13538833
21	0x3e082bce	0.1329796
22	0xbe44864c	-0.19191855
23	0x3f1d888d	0.61536485
24	0xbe114c2b	-0.14189212
25	0x3dc47080	0.0959177
26	0xbe5beb38	-0.21476448
27	0x3e34b19c	0.17645878
28	0x3e12879a	0.1430954
29	0xbe9ec02c	-0.3100599
30	0xbe9d5bf7	-0.30734226
31	0xbc9da912	-0.019245658
32	0x3e0c3612	0.13692501
33	0xbe2bcf64	-0.16778332
34	0xbdc61ab1	-0.0967306
35	0x3ee7d435	0.4527909
36	0xbe3a9a7d	-0.18222995
37	0xbd8ea64e	-0.06965314
38	0x3e164bdb	0.14677374
39	0xbeafffc8	-0.34374833
40	0xbe4f8f75	-0.20269568
41	0x3e1c0eb6	0.15239987
42	0xbe20a599	-0.1568817
43	0xbe2dc475	-0.16969474
44	0x3e0cb260	0.1373992
45	0x3e90dd14	0.2829367
46	0xbe6dedee	-0.23235294
47	0xbe34afd2	-0.17645195
48	0xbe01495c	-0.1262564
49	0xbe8881e7	-0.26661608
50	0xbc544ea9	-0.012958207
51	0x3eada80f	0.3391728
52	0x3eebe4e9	0.46073082
53	0x3ebc380d	0.36761513
54	0x3e207287	0.15668689
55	0xbed3dbc3	-0.41378602
56	0xbedbd7a7	-0.42937967
57	0x3f003090	0.500741
58	0xbeab7968	-0.33491063
59	0x3d5eede0	0.054426074
60	0xbde257a6	-0.11051874
61	0x3c86e62d	0.016467178
62	0xbdb7e0ba	-0.0897841
63	0x3e3eeebe	0.1864576
64	0xbe9aa3a4	-0.30202973
65	0xbcc30672	-0.023806784
66	0xbe386602	-0.18007663
67	0x3ce30569	0.02771254
68	0xbde47fe7	-0.11157208
69	0xbd85907b	-0.06521698
70	0xbcffc010	-0.031219512
71	0xbee556e5	-0.44792858
72	0x3ead3238	0.33827376
73	0xbf31df57	-0.69481415
74	0x3df51143	0.11966183
75	0xbefc9ccc	-0.49338377
76	0x3e6fbe70	0.2341249
77	0x3ee03384	0.43789303
78	0x3f0021cc	0.5005157
79	0xbc818630	-0.015811056
80	0x3d9bf45b	0.076149665
81	0x3c368f64	0.011142585
82	0xbe431a01	-0.19052888
83	0x3e41dfad	0.18932982
84	0x3ed56512	0.41678673
85	0x3eb72425	0.35769764
86	0x3ed336fb	0.41252884
87	0x3d4b7116	0.049668394
88	0xbed445ef	-0.41459605
89	0x3ebdd92e	0.37079757
90	0xbe0b18f1	-0.13583733
91	0x3e5ae734	0.2137726
92	0xbd947995	-0.072497524
93	0x3bb8c917	0.005639206
94	0xbe965c2d	-0.293672
95	0x3eb48968	0.35261083
96	0xbe3f7824	-0.18698174
97	0xbe179754	-0.14803821
98	0x3d4ca283	0.04995967
99	0xbcaea1d0	-0.021317393
100	0x3d0546c0	0.032538176
101	0xbe81aab5	-0.25325552
102	0xbe599836	-0.2124947
103	0xbda860cc	-0.082215875
104	0xbd90e5b2	-0.07075061
105	0x3d811dac	0.063044876
106	0xbd552c34	-0.05204411
107	0xbdfa9280	-0.12234974
108	0xbe8e1793	-0.2775236
109	0xbe55c254	-0.20874912
110	0x3e0c96aa	0.13729349
111	0xbeb64e46	-0.35606593
112	0xbddc6060	-0.107605696
113	0x3ce52e80	0.027976274
114	0xbe2b72e9	-0.16743053
115	0xbec542ae	-0.38527435
116	0x3ee22d77	0.44175312
117	0xbf02ee10	-0.51144505
118	0xbe9c021c	-0.3047036
119	0xbeed30a4	-0.46326172
120	0x3f03fbf7	0.5155634
121	0x3d55c27e	0.052187435
122	0x3ed799d8	0.4210956
123	0x3ec0ab35	0.3763062
124	0xbde7b6e3	-0.1131418
125	0xbe017c28	-0.12645018
126	0xbe1c1541	-0.15242483
127	0x3d7373ab	0.05943648
128	0x3e2d4a2e	0.16922829
129	0x3a6c0091	0.000900277
130	0x3e4d67e1	0.20059158
131	0xbed097f9	-0.40740946
132	0xbcf18192	-0.02948073
133	0x3ca568a3	0.020191496
134	0x3dbbfe2c	0.09179339
135	0xbded8c54	-0.11599031
136	0xbe31d212	-0.17365292
137	0x3d81130c	0.06302461
138	0xbc17e01f	-0.009269743
139	0xbc5715e8	-0.013127781
140	0x3db901b5	0.09033529
141	0xbe7f5cc2	-0.24937728
142	0xbe58f1e5	-0.21186025
143	0x3e91baa0	0.28462696
144	0xbccde175	-0.02513192
145	0x3f105113	0.5637371
146	0xbd6fcee1	-0.058546904
147	0xbd64bf77	-0.055846658
148	0x3e7e6567	0.2484337
149	0xbd650a0e	-0.055917792
150	0x3f027a2b	0.50967664
151	0x3ea0c6ce	0.31401676
152	0xbd8bad41	-0.06820155
153	0x3e705135	0.23468478
154	0x3d84a712	0.06477179
155	0x3eb71a67	0.3576233
156	0xbeea8213	-0.45802364
157	0xbeaf78c4	-0.34271824
158	0x3e2164cc	0.15761107
159	0xbe308600	-0.17238617
160	0x3d482671	0.048864786
161	0xbe2ca545	-0.1685992
162	0x3e954727	0.29155847
163	0x3eb314ab	0.34976706
164	0x3d19e6d6	0.037573658
165	0x3ec7a00f	0.38989303
166	0x3e25268c	0.16127986
167	0x3ebc52f3	0.36782035
168	0xbcb7f624	-0.022456236
169	0x3d06dea7	0.03292718
170	0xbd469a6b	-0.04848711
171	0xbcc56261	-0.024094762
172	0x3ea961ea	0.33082515
173	0x3f041f51	0.51610285
174	0x3e8707c8	0.26373124
175	0x3e32253a	0.17397013
176	0x3d2a426c	0.04156725
177	0xbda07e17	-0.0783655
178	0x3f051e7d	0.51999646
179	0xbe465538	-0.19368446
180	0xbf051c4f	-0.5199632
181	0x3e0fbb9d	0.14036413
182	0x3e12410b	0.14282624
183	0xbf0564dc	-0.52107024
184	0xbf0eba5a	-0.557531
185	0x3e2ca55e	0.16859958
186	0x3d250c2e	0.04029482
187	0xbdd145ba	-0.102183774
188	0xbdaa2869	-0.08308489
189	0x3cb83608	0.022486702
190	0xbea3d796	-0.32000417
191	0x3ecbc4da	0.39798623
192	0x3dd6a9ee	0.1048163
193	0xbebdb398	-0.37051082
194	0xbf014074	-0.5048897
195	0x3e9387e1	0.28814605
196	0xbeeaa510	-0.45829058
197	0xbe1d8686	-0.15383348
198	0x3eb42648	0.35185456
199	0xbe4be502	-0.19911578
200	0xbdc86430	-0.09784734
201	0x3d6e89fa	0.058237053
202	0xbe8d1cf9	-0.27561167
203	0xbe7d31cc	-0.24726027
204	0x3d9cca89	0.07655818
205	0x3dd6be13	0.104854725
206	0xbe1bd1af	-0.15216707
207	0x3eabb6b2	0.33537823
208	0x3e211608	0.1573106
209	0xbe81d1f4	-0.25355494
210	0xbc360ec3	-0.011111918
211	0xbe6b6ddb	-0.22991125
212	0xbe8b4f49	-0.27208927
213	0x3e823957	0.25434372
214	0xbe5b3420	-0.21406603
215	0x3eb53b94	0.35397017
216	0xbee4d14b	-0.44690928
217	0xb9bba5ce	-0.00035790954
218	0xbf2a14bc	-0.6643789
219	0x3e663000	0.22479248
220	0xbf0d1ca8	-0.5512185
221	0x3f094259	0.53616863
222	0x3e85764a	0.2606681
223	0xbe926d6c	-0.28599107
224	0xbe7d15f6	-0.24715409
225	0x3e274e9f	0.16338585
226	0x3d04bb5c	0.032405242
227	0x3e9f8600	0.3115692
228	0xbe8020d4	-0.25025046
229	0x3e0d4a32	0.13797835
230	0x3e9cedd7	0.30650207
231	0x3e94893f	0.2901096
232	0x3e7309ce	0.23734209
233	0x3e8ce8c6	0.27521342
234	0x3c60677c	0.013696548
235	0xbcea34d9	-0.028589653
236	0x3c84cf98	0.01621227
237	0xbea64b60	-0.32479382
238	0x3e54069f	0.20705651
239	0x3e8d4fcb	0.2759994
240	0x3e61b9a8	0.22043478
241	0x3ee9c1fa	0.45655805
242	0xbd681984	-0.05666496
243	0xbe6f8d32	-0.23393705
244	0x3e04dbbc	0.12974447
245	0x3e1d5186	0.1536313
246	0x3e1494f2	0.14509943
247	0xbcd69d00	-0.02619791
248	0x3d1b1298	0.03785953
249	0xbdfdfb8c	-0.124014944
250	0xbe9277b4	-0.2860695
251	0xbe832bce	-0.25619358
252	0xbe84fe6b	-0.25975356
253	0xbe427050	-0.18988156
254	0x3f1a9f47	0.6039929
255	0xbec3e6a0	-0.3826189

linear1.bias f4 [256]
0	0x3ec6034d	0.38674393
1	0xbc1a5856	-0.009420475
2	0x3dd2e35f	0.10297274
3	0x3e30b1c5	0.17255314
4	0xbe8370e0	-0.25672054
5	0x3e0424e4	0.12904698
6	0x3eb2c19c	0.34913337
7	0xbe96a2df	-0.29421136
8	0xbcceb8db	-0.02523463
9	0xbe985f59	-0.29760244
10	0xbcc00562	-0.023440067
11	0xbe399055	-0.18121465
12	0xbcb86bdc	-0.022512369
13	0xbe6bbb0a	-0.23020568
14	0xbe6a25fa	-0.2286605
15	0xbe9ce617	-0.30644295
16	0x3e6b1198	0.2295593
17	0x3dab36c1	0.08360053
18	0xbd2a5a49	-0.04159001
19	0x3ea3b000	0.31970215
20	0x3daa569c	0.08317301
21	0xbe895bd2	-0.26827866
22	0xbe2944cc	-0.1653015
23	0x3e8b15d5	0.27165094
24	0xbe4db5cf	-0.20088886
25	0xbd4d6fa3	-0.050155293
26	0x3e8fd71e	0.2809381
27	0xbd951d8f	-0.072810285
28	0xbd9dd340	-0.07706308
29	0xbdc0fbe4	-0.09423044
30	0xbeac83c3	-0.33694276
31	0x3eb022d5	0.34401575
32	0xbdd1a94c	-0.10237369
33	0x3ea9c585	0.33158508
34	0x3cf64022	0.030059878
35	0xbce6505e	-0.028114494
36	0x3dc794b9	0.097451635
37	0xbe57ab4e	-0.21061441
38	0xbe880842	-0.265688
39	0xbdb9cea9	-0.090726204
40	0xbe2d5d0f	-0.1693003
41	0xbcb72edd	-0.022361213
42	0xbe49c954	-0.19705707
43	0xbe3391d8	-0.17536104
44	0x3c45af13	0.012065667
45	0x3ddcb4a4	0.10776642
46	0xbee3c22f	-0.44484088
47	0x3e1e5105	0.15460594
48	0x3ec0ab33	0.37630615
49	0x3e30b04b	0.1725475
50	0x3d2cbfc8	0.042175084
51	0xbe252af9	-0.16129674
52	0xbe14818e	-0.14502546
53	0xbe8da57d	-0.2766532
54	0xbdddd92b	-0.10832437
55	0xbe7fe18e	-0.24988386
56	0xbe03b960	-0.12863684
57	0x3c821d5e	0.015883144
58	0xbe8e9f7a	-0.27856046
59	0x3f2219c7	0.63320583
60	0xbd95388c	-0.07286176
61	0xbe05102d	-0.12994452
62	0xbe53ba9a	-0.20676652
63	0xbbdb2ead	-0.006688914
64	0xbec96a5b	-0.39338955
65	0xbe20a4e1	-0.15687896
66	0x3ba054e7	0.0048929336
67	0xbe628d89	-0.22124304
68	0xbdb6dbe4	-0.089286596
69	0xbe5d4c66	-0.21611175
70	0x3e8ed538	0.27897048
71	0xbe45376e	-0.19259426
72	0xbe4c72a5	-0.19965608
73	0xbe855048	-0.26037812
74	0xbd8de339	-0.06928105
75	0xbe861ace	-0.26192325
76	0xbd835389	-0.064124174
77	0xbe2121a2	-0.15735486
78	0x3d5966a0	0.053076386
79	0xbd447225	-0.04796042
80	0xbe32729d	-0.17426534
81	0xbe9174c8	-0.2840941
82	0xbe44fba7	-0.19236623
83	0xbd320487	-0.04346135
84	0xbdfcda08	-0.12346274
85	0x3e706919	0.23477592
86	0xbe4ce2c3	-0.20008378
87	0xbc1c5a40	-0.009543002
88	0x3ef6a844	0.4817525
89	0xbeb2dcbc	-0.34934032
90	0xbe635d11	-0.22203471
91	0xbde762c1	-0.11298133
92	0x3e8bb567	0.27286837
93	0x3d1a10f1	0.037613813
94	0x3bfb6928	0.0076724477
95	0x3de83c01	0.1133957
96	0xbeabeba1	-0.33578208
97	0xbd805690	-0.062665105
98	0x3ea012a2	0.31264216
99	0xbe1fd62c	-0.15609044
100	0xbe356b14	-0.17716628
101	0xbe88cc29	-0.26718262
102	0x3f126b4c	0.5719497
103	0xbe5df324	-0.21674782
104	0xbe202731	-0.1563995
105	0xbeded6b5	-0.43523183
106	0x3ec45c88	0.38351846
107	0xbe21ce93	-0.15801458
108	0xbe777e46	-0.24169263
109	0xbd48d67d	-0.049032677
110	0xbe009ec5	-0.12560566
111	0xbe3232c6	-0.17402181
112	0x3e6bef55	0.23040517
113	0xbec5a282	-0.38600546
114	0x3d3e1740	0.04640889
115	0x3d121078	0.035660237
116	0x3ea19447	0.3155844
117	0x3c7575d9	0.01498171
118	0x3be7e7df	0.0070772017
119	0xbd0b7e64	-0.034056082
120	0xbe130aa5	-0.1435953
121	0xbcdd49aa	-0.027012665
122	0x3daf93bb	0.08573099
123	0xbdb0345c	-0.08603737
124	0xbea560e2	-0.32300478
125	0xbe2b0699	-0.16701736
126	0x3dcf9aa6	0.10136919
127	0xbe6d0b3a	-0.23148814
128	0x3d337b61	0.043818835
129	0xbc1aac56	-0.009440502
130	0xbe38109e	-0.17975089
131	0x3eec200b	0.46118197
132	0xbd9ac4f2	-0.075570956
133	0x3cebf8dd	0.02880519
134	0x3e8d27d8	0.2756946
135	0x3ded3b72	0.11583604
136	0x3e7ed606	0.24886331
137	0xbe672613	-0.22573118
138	0xbdddf502	-0.10837747
139	0xbe472836	-0.19448933
140	0x3decacd1	0.115563996
141	0xbde1fe18	-0.11034793
142	0x3c0c35a4	0.008557711
143	0x3d364238	0.044496745
144	0x3e8dd329	0.27700165
145	0xbe470f17	-0.1943935
146	0x3e92bfa6	0.2866184
147	0x3d7b1324	0.06129755
148	0xbe09e2c4	-0.1346541
149	0x3ab9f1ec	0.0014186478
150	0xbd914ff4	-0.07095328
151	0x3e0bd821	0.13656665
152	0x3e29715d	0.16547151
153	0x3d12bd9f	0.035825368
154	0xbde4e37f	-0.11176204
155	0x3da8b3f0	0.08237445
156	0x3ec3f2a6	0.38271064
157	0x3e5f1506	0.21785364
158	0x3d9261aa	0.07147534
159	0x3d4e0fe8	0.050308138
160	0x3e06099d	0.13089605
161	0x3e55bbe5	0.20872457
162	0xbd529556	-0.05141195
163	0x3d69f1e0	0.057115436
164	0xbbe2d6ab	-0.006922563
165	0xbdbce60c	-0.092235655
166	0xbe4b5559	-0.19856776
167	0x3c8c2250	0.017106205
168	0xbee20960	-0.44147778
169	0xbd5435f2	-0.05180926
170	0xbe8b4a93	-0.27205333
171	0xbd3b8a51	-0.045786206
172	0xbedde2f1	-0.43337205
173	0x3d6ec453	0.058292698
174	0xbe969935	-0.29413763
175	0xbe6591a2	-0.22418836
176	0xbe0acb0b	-0.13554017
177	0xbd5f37b8	-0.054496497
178	0x3f75dac8	0.9603696
179	0xbd0ae8cb	-0.033913415
180	0x3d45e88e	0.048317485
181	0xbea72fdd	-0.32653704
182	0xbe17f678	-0.14840114
183	0x3e597b78	0.21238506
184	0xbdf04b95	-0.11733166
185	0x3c82f312	0.015985046
186	0xbc468487	-0.012116558
187	0xbdcf7b25	-0.1013091
188	0xbe84fce3	-0.25974187
189	0x3da7904b	0.081818186
190	0xbdbf0265	-0.093266286
191	0x3e8f6493	0.2800642
192	0xbea0c545	-0.31400505
193	0x3e2fe187	0.17175876
194	0x3ec18f68	0.37804723
195	0x3f2ed529	0.68294007
196	0x3cacdda0	0.021101773
197	0x3e2793bc	0.1636495
198	0xbe57b497	-0.21064983
199	0xbdc97d8e	-0.09838401
200	0x3eb52d9c	0.3538636
201	0x3e0b15ec	0.13582581
202	0xbe7c9487	-0.24666034
203	0xbe2e6e11	-0.17034175
204	0x3d01048e	0.031498484
205	0x3f3bafbc	0.73315024
206	0xbdf75312	-0.12076391
207	0x3d89c4f5	0.0672702
208	0x3d98a576	0.07453434
209	0x3f06e2d4	0.5268986
210	0xbe79472e	-0.24343559
211	0x3e93dd96	0.28879994
212	0x3c4b7309	0.012417563
213	0xbebf427f	-0.3735542
214	0x3e70a25a	0.23499432
215	0xbe6caefb	-0.23113625
216	0xbeabba1c	-0.33540428
217	0xbeb631ee	-0.35584968
218	0x3b8ba52b	0.004261633
219	0x3e94fae0	0.29097652
220	0xbd9ef006	-0.077606246
221	0xbdd30612	-0.10303892
222	0xbed349e5	-0.41267315
223	0x3bb8c90e	0.005639202
224	0xbe9f9361	-0.3116713
225	0x3ed5e6fd	0.41777793
226	0xbd69ce6e	-0.057081632
227	0x3ebb4959	0.36579397
228	0x3ed1d679	0.40983942
229	0x3e985965	0.29755703
230	0x3eb0dafe	0.34542078
231	0xbd071d0b	-0.032986682
232	0x3c0da520	0.008645326
233	0xbe05fad4	-0.13083965
234	0xbde5a5ff	-0.11213302
235	0xbdfb8b13	-0.12282386
236	0x3e39b8c8	0.18136895
237	0x3c8aeff5	0.016960124
238	0xbd694d83	-0.056958687
239	0xbd3f8049	-0.0467532
240	0xbcde0dd1	-0.027106198
241	0x3c3379ce	0.0109543335
242	0xbea5a4ee	-0.32352394
243	0x3e0f94bb	0.1402158
244	0xbd7aca92	-0.061228342
245	0xbe9f4f60	-0.31115246
246	0xbdace6cb	-0.08442458
247	0x3e04e8e2	0.12979463
248	0xbe0665eb	-0.13124816
249	0xbc8a9094	-0.016914643
250	0xbe2ec6d0	-0.17068028
251	0xbd241e40	-0.04006791
252	0xbeb77e57	-0.35838577
253	0x3e17b747	0.14816009
254	0xbdfa5a01	-0.12224198
255	0xbda07b8e	-0.07836066

linear2.weight f4 [3, 256]
0	0x3e811c34	0.2521683
1	0xbe06e93f	-0.13174914
2	0x3e767a64	0.24070126
3	0x3cfb14eb	0.030649623
4	0xbe839024	-0.25695908
5	0x3e02d2aa	0.12775674
6	0x3ea2b3db	0.31777844
7	0xbe4a2dbc	-0.19744009
8	0x3d8ce8d7	0.06880348
9	0xbd5f3134	-0.054490283
10	0x3edbdce4	0.42941964
11	0xbdc43b77	-0.095816545
12	0xbcc1b8ab	-0.023647627
13	0xbe905f09	-0.28197506
14	0x3c86ad46	0.016440045
15	0xbe5b1542	-0.21394828
16	0x3ecc67ba	0.39922887
17	0x3e91f3b2	0.28506237
18	0xbe2b07fb	-0.16702263
19	0x3ecac699	0.39604643
20	0x3da78031	0.081787474
21	0xbe6ac186	-0.22925386
22	0x3b8e80a0	0.0043488294
23	0x3e2b0997	0.16702877
24	0xbeabd3ec	-0.3356012
25	0x3dea5981	0.11442853
26	0x3e2583a5	0.161635
27	0x3e86fc20	0.2636423
28	0xba71b011	-0.00092196563
29	0xbd660601	-0.05615807
30	0xbe38822c	-0.18018407
31	0x3e8780f5	0.26465574
32	0xbbdf15a3	-0.006807999
33	0x3def39a9	0.1168092
34	0x3ebac31d	0.36476985
35	0x3d6c9ec9	0.057768617
36	0x3e901503	0.2814103
37	0xbe6a68bb	-0.22891514
38	0xbc155281	-0.009113909
39	0xbd1f9b50	-0.038966477
40	0xbcef34b1	-0.02919993
41	0x3e798a44	0.2436915
42	0xbe8a3543	-0.2699376
43	0x3e47afbf	0.19500636
44	0xbd4ae543	-0.049535047
45	0x3da9cf52	0.08291496
46	0xbcdc183a	-0.02686702
47	0x3ea59225	0.32338062
48	0x3e6f5910	0.23373818
49	0x3e99de5c	0.3005246
50	0xbf0ccc1d	-0.5499895
51	0x3e2d8b28	0.16947615
52	0xbecd9c1a	-0.4015816
53	0xbe23223f	-0.15931033
54	0xbd4d1be4	-0.050075427
55	0xbd43ee74	-0.04783483
56	0xbebb7f01	-0.36620334
57	0x3e8cbbaa	0.27486926
58	0xbe7d1ab1	-0.24717213
59	0x3e1fa8e1	0.15591766
60	0x3c1c3c8b	0.009535919
61	0x3eb65ae7	0.35616228
62	0x3cc0d4fd	0.02353906
63	0x3e8c865c	0.27446258
64	0xbea6c5d1	-0.32572797
65	0x3d0a7c55	0.03380998
66	0xbf28f56a	-0.6599947
67	0xbec3466a	-0.3813966
68	0x3dd65b9e	0.10466693
69	0x3ab220f0	0.0013590138
70	0x3ec46033	0.38354644
71	0xbc5d0751	-0.013490514
72	0xbe424d81	-0.18974878
73	0xbe87c3d5	-0.26516595
74	0x3e5044f8	0.2033881
75	0xbe8b3fed	-0.2719721
76	0xbe382c7c	-0.1798572
77	0xbe8926f3	-0.26787528
78	0xbd6a8823	-0.057258736
79	0x3e8e2fb2	0.27770764
80	0xbd5765cc	-0.052587315
81	0xbdfc238b	-0.12311467
82	0x3b8264a8	0.0039792843
83	0x3e60894d	0.21927376
84	0x3c955750	0.01823011
85	0x3e427339	0.18989266
86	0xbd79932a	-0.060931362
87	0x3e21e814	0.15811187
88	0x3ea55fd2	0.32299668
89	0xbe78f3d6	-0.24311766
90	0xbf2b8e18	-0.6701369
91	0x3e43a749	0.19106783
92	0x3e85af5c	0.2611035
93	0x3eb1d63f	0.3473377
94	0x3ebbd0dd	0.36682788
95	0xbe5dc336	-0.21656498
96	0xbe7b8154	-0.24561054
97	0xbcfdcbb2	-0.030980919
98	0x3e501bca	0.203231
99	0xbed3b4ee	-0.41348976
100	0xbe9f61e2	-0.31129366
101	0xbc98c8ab	-0.018650373
102	0x3e80b386	0.25136966
103	0xbe708a33	-0.23490219
104	0xbebdce1c	-0.3707131
105	0xbd19583d	-0.037437666
106	0x3e7346c5	0.23757465
107	0xbd410fa2	-0.04713405
108	0xbd36c5c0	-0.044622183
109	0xbdde1de5	-0.10845546
110	0x3b8cda94	0.0042985175
111	0x3b859a3d	0.0040772245
112	0x3e838692	0.25688607
113	0xbe6a02eb	-0.22852676
114	0x3d152f26	0.036421917
115	0xbe88794b	-0.2665504
116	0x3ed22c86	0.41049594
117	0x3c632ae3	0.013865205
118	0xbdf0406f	-0.1173104
119	0xbef1f87a	-0.47259885
120	0x3cf3e7c9	0.02977361
121	0x3eace631	0.33769372
122	0xbdcfb985	-0.10142807
123	0x3e2fc0cc	0.1716339
124	0xbecb40b2	-0.39697796
125	0xbe87e55c	-0.26542175
126	0x3bb99a4b	0.005664145
127	0xbd401fb5	-0.04690524
128	0xbd6cd317	-0.0578185
129	0x3e21d00c	0.1580202
130	0xbea30fe2	-0.31848055
131	0x3eb118c2	0.345892
132	0x3c830a8e	0.015996244
133	0xbea2f104	-0.31824505
134	0x3ea9a031	0.3313003
135	0xbe4b4d20	-0.1985364
136	0xbefc95bf	-0.49332997
137	0xbecb0287	-0.39650366
138	0xbdf2afe1	-0.118499525
139	0xbe20cc46	-0.15702924
140	0x3ead84bd	0.33890334
141	0xbd8ae818	-0.067825496
142	0xbd590b89	-0.052989516
143	0x3ed5d048	0.41760468
144	0x3ea7d2d1	0.32778028
145	0x3ea1bfbc	0.31591594
146	0x3e32f589	0.17476477
147	0x3dcef709	0.10105712
148	0xbe0b32ca	-0.13593593
149	0x3cb1417e	0.021637674
150	0xbdd4ae94	-0.10384861
151	0xbe99177e	-0.29900736
152	0x3e804d85	0.25059143
153	0x3f0eda4f	0.5580186
154	0xbedb65b9	-0.42851046
155	0x3df6c8c6	0.12050013
156	0x3e8362af	0.25661227
157	0x3e25eca7	0.16203557
158	0x3c104546	0.008805579
159	0xbeb31456	-0.34976453
160	0x3da5a087	0.08087259
161	0x3db2b140	0.08725214
162	0xbf16e897	-0.58948654
163	0xbc657027	-0.01400379
164	0xbe5b2b1e	-0.21403167
165	0xbce683bf	-0.028138993
166	0x3d07f670	0.033194005
167	0x3d9a240f	0.07526409
168	0xbea04ffb	-0.3131102
169	0x3e6bc7f0	0.23025489
170	0xbc5fe540	-0.013665497
171	0xbd5b5886	-0.05355122
172	0x3c2f2ad1	0.010691361
173	0xbe00629e	-0.1253762
174	0xbd31684a	-0.04331235
175	0x3ceacc18	0.028661773
176	0xbb8a8b91	-0.0042280634
177	0xbdc4b5cc	-0.096049875
178	0x3ea4e62d	0.3220686
179	0xbe77bb7f	-0.24192618
180	0x3bd7063f	0.006562024
181	0xbe1f3cd9	-0.15550555
182	0xbd697b88	-0.057002574
183	0xbe318df3	-0.17339306
184	0xbe52b620	-0.20577288
185	0xbeb1c26c	-0.34718645
186	0xbe203364	-0.15644604
187	0xbe7c130c	-0.24616641
188	0x3ad97b0c	0.0016592457
189	0xbd444f03	-0.047926914
190	0xbe193ec5	-0.14965351
191	0x3e66fa4a	0.22556415
192	0xbd82223b	-0.06354185
193	0x3ec01365	0.37514797
194	0x3e247e59	0.16063823
195	0x3e68bcbc	0.22728246
196	0x3ea77319	0.32705
197	0x3efa234f	0.48855063
198	0xbe91171f	-0.28337952
199	0xbd8f84c9	-0.07007749
200	0x3e605b8d	0.21909924
201	0x3ed09d18	0.40744853
202	0xbc85626f	-0.016282288
203	0xbed91796	-0.42400807
204	0x3f127962	0.57216465
205	0x3e912967	0.283519
206	0x3e99658f	0.29960296
207	0xbeb45135	-0.35218206
208	0x3e037fb1	0.12841679
209	0x3eb3283f	0.34991643
210	0xbe828cfb	-0.25498185
211	0x3f06cce7	0.52656406
212	0xbd176ee8	-0.036971003
213	0x3cacee7d	0.021109814
214	0x3daee0dc	0.08538982
215	0xbed66804	-0.41876233
216	0xbecd6d4b	-0.40122446
217	0xbd1c35fc	-0.03813742
218	0xbd5f56b0	-0.05452603
219	0x3e0a34d3	0.13496713
220	0x3eae5da0	0.34055805
221	0x3d350df8	0.044202775
222	0xbd14190f	-0.03615671
223	0xbc9aba59	-0.018887686
224	0xbcbb77d0	-0.02288428
225	0x3d844504	0.06458476
226	0xbe6d9cb4	-0.23204309
227	0x3e9e135a	0.3087414
228	0x3e3f6156	0.18689474
229	0x3e3ce79e	0.1844773
230	0x3e66e080	0.22546577
231	0xbe9a4299	-0.30128935
232	0x3ca2b8f0	0.019863576
233	0xbd56b4fe	-0.0524187
234	0x3d54cef4	0.05195518
235	0x3e50e03a	0.20398036
236	0x3d6dfc0a	0.05810169
237	0xbe874bc3	-0.2642499
238	0xbdca8a29	-0.09889633
239	0x3f091df1	0.5356131
240	0x3c0028d9	0.007822239
241	0xbd0825ac	-0.03323905
242	0xbd3dabff	-0.046306606
243	0x3e120f07	0.14263545
244	0x3ea97f2b	0.33104834
245	0xbdda90f5	-0.106721796
246	0x3e376504	0.17909628
247	0x3dd34a44	0.103168994
248	0x3e942711	0.28936055
249	0x3e4b1c1d	0.19834943
250	0xbe835235	-0.25648656
251	0xbd3b7836	-0.04576894
252	0xbda1bc6a	-0.07897265
253	0x3e72f1e2	0.23725083
254	0xbf053c2f	-0.5204496
255	0xbc521822	-0.0128231365

linear2.bias f4 [3]
0	0x3e33a350	0.17542768
1	0x3c28fe9f	0.010314613
2	0xbccbefd7	-0.024894638
