model/model.pth (torch, 16787 bytes, 4 tensors)

linear1.weight f4 [256, 11]
0.5004211 -0.04532226 -0.26719075 -0.10177417 0.014736152 0.14929296 -0.077883095 0.32037088
0.15223934 0.06781305 0.12356062 -0.1347192 0.033322677 0.04151661 -0.12991534 0.01376308
0.086225055 0.23839694 0.059709564 -0.12117246 -0.29447845 -0.3025683 -0.10167506 0.55647445
0.05185874 0.07998795 -0.071756855 5.0476665e-05 -0.12587368 0.06933851 0.012255675 -0.30750403
-0.2064328 -0.29285657 0.3801513 -0.005750835 0.18837604 -0.060447108 0.22034709 -0.041309495
-0.1264589 0.046752505 -0.15285867 -0.00059283624 0.40357366 -0.070044085 0.035877474 -0.028464178
0.089201696 0.10643749 -0.17883359 -0.21489249 -0.06709734 -0.24095976 -0.009450922 0.36020896
0.1639494 -0.17305349 -0.120430306 0.10340479 0.016980123 -0.10382657 -0.06576029 0.014884592
0.123342134 0.22163384 -0.27642074 -0.27440658 -0.16732821 0.3514454 0.24276897 -0.016471788
0.010681304 -0.30070624 -0.23131639 0.010729105 0.19911413 0.52063745 0.16028456 0.18013857
-0.19667569 -0.12192398 0.11306793 0.2581214 0.28781086 -0.15731327 0.27886295 0.28732204
-0.2759437 0.12397596 0.3052825 -0.26058227 0.2742743 0.053243216 -0.25570482 -0.07816872
0.2467241 -0.2896925 -0.24436423 0.14259684 0.046860106 -0.37956852 0.15497391 -0.050796475
0.3159557 0.3345504 -0.022974348 0.29756925 -0.16094823 -0.16509482 0.35294124 -0.24729691
0.0015113577 -0.1033269 -0.2419288 -0.042061806 0.17744157 0.15721223 0.24820516 0.11366768
0.23547311 -0.012623103 -0.25263354 -0.07960641 -0.115434445 0.2364969 0.120769255 -0.22440872
-0.22037086 -0.15645224 -0.20798633 -0.23263228 0.27407572 -0.34430158 -0.048243392 0.078086704
-0.36090466 0.19773102 -0.29132962 0.024206799 0.18397067 0.25686318 0.10205524 0.11924935
-0.2182475 0.3096384 -0.20546238 -0.023632728 -0.13086472 -0.20534457 -0.088738285 0.10485072
-0.054112274 0.30615532 0.27029476 -0.09102482 0.09017222 0.20658669 -0.19836864 0.102748595
0.06697414 -0.28121156 -0.18644057 -0.08087732 0.14565176 0.45431763 -0.26313716 0.15306924
0.073893785 0.13469079 0.14076382 -0.09432169 -0.01733458 -0.12545519 0.27856362 0.26774633
-0.23781778 0.43734747 -0.14797097 0.21908124 -0.10783075 0.23300257 0.0004129662 0.08210943
0.048007365 -0.2224188 0.14868972 -0.06639228 -0.0052659726 0.077657655 0.11376114 -0.16754931
0.15702498 0.14418408 -0.29827696 -0.124521516 0.18775778 -0.1501651 0.4771965 -0.1495575
-0.058524955 0.24783625 -0.217288 0.0581023 0.07911361 0.22686408 -0.01886246 0.06301144
0.10380564 0.3254722 -0.32067183 0.13272071 0.116017476 0.23155992 0.15262958 -0.15404518
-0.18291044 0.16823772 -0.11983065 0.18995588 0.106741115 -0.10879119 0.28131622 -0.056341346
-0.23943809 -0.323123 -0.0043124664 0.15185608 -0.104981065 0.25007555 -0.017137622 0.49188402
-0.024479879 0.12317886 1.6640897e-05 0.050577026 0.29689172 -0.24583755 0.19112398 0.023629919
-0.17016166 -0.05193282 -0.028025253 0.37434283 0.44957677 0.101376295 0.2830163 -0.12446246
0.042221434 0.23999642 0.1455666 0.037258923 0.15503003 0.08332287 0.23946361 0.09729929
00000000: 991b 003f d6a3 39bd 3acd 88be fa6e d0bd
00000010: e76f 713c 41e0 183e 2c81 9fbd a707 a43e
00000020: a1e4 1b3e 91e1 8a3d 5a0d fd3d d4f3 09be
00000030: 5c7d 083d 520d 2a3d 8708 05be 8b7e 613c
00000040: c396 b03d 541e 743e 0492 743d 4429 f8bd
00000050: e1c5 96be 3bea 9abe 043b d0bd 1c75 0e3f
00000060: d569 543d b9d0 a33d 42f5 92bd e8b6 5338
00000070: 08e5 00be 5901 8e3d 07cc 483c 2b71 9dbe
00000080: 1f63 53be 4cf1 95be 31a3 c23e 8071 bcbb
00000090: a6e5 403e 6397 77bd aba2 613e 2534 29bd
000000a0: 717e 01be 8e7f 3f3d fc86 1cbe 9168 1bba
000000b0: 35a1 ce3e 4673 8fbd 42f4 123d b52d e9bc
000000c0: 61af b63d e6fb d93d 2720 37be c70c 5cbe
000000d0: 556a 89bd 28be 76be 0ad8 1abc 4f6d b83e
000000e0: 5ae2 273e ef34 31be 2aa4 f6bd e4c5 d33d
000000f0: e619 8b3c 06a3 d4bd 55ad 86bd 81de 733c
00000100: cd9a fc3d fbf3 623e 0587 8dbe 057f 8cbe
00000110: 1658 2bbe a7f0 b33e 6e98 783e d8ef 86bc
00000120: a300 2f3c 2bf6 99be 34de 6cbe 21c9 2f3c
00000130: 93e4 4b3e 7f48 053f a321 243e 3f76 383e
00000140: 5a65 49be 48b3 f9bd 2990 e73d 7d28 843e
00000150: f25b 933e bb16 21be 20c7 8e3e e01b 933e
00000160: 7e48 8dbe 1ce7 fd3d fd4d 9c3e 0a6b 85be
00000170: ae6d 8c3e 8f15 5a3d beeb 82be ec16 a0bd
00000180: 3ea5 7c3e 9352 94be 9e3a 7abe e804 123e
00000190: 62f0 3f3d ce56 c2be 7bb1 1e3e f70f 50bd
000001a0: f2c4 a13e 314a ab3e b334 bcbc ff5a 983e
000001b0: 9dcf 24be 9e0e 29be b7b4 b43e 673b 7dbe
000001c0: c018 c63a 0e9d d3bd 2fbc 77be 0049 2cbd
000001d0: 3eb3 353e 3efc 203e 7e29 7e3e 9aca e83d
000001e0: dd1f 713e 22d1 4ebc 2f59 81be af08 a3bd
000001f0: e568 ecbd 3e2c 723e df55 f73d 66cb 65be
00000200: e6a8 61be 0435 20be 5efa 54be 2837 6ebe
00000210: a753 8c3e 4c48 b0be dd9a 45bd eceb 9f3d
00000220: 7fc8 b8be 007a 4a3e 2829 95be 564d c63c
00000230: cf62 3c3e 9283 833e 5602 d13d 0139 f43d
00000240: 467c 5fbe ed88 9e3e bb64 52be 6c99 c1bc
00000250: 6701 06be d945 52be 6bbc b5bd f9bb d63d
00000260: d5a4 5dbd 64c0 9c3e 1364 8a3e 396b babd
00000270: 36ac b83d 768b 533e 2621 4bbe db6d d23d
00000280: bd29 893d f6fa 8fbe 47ea 3ebe 02a3 a5bd
00000290: bc25 153e 529c e83e eab9 86be 2fbe 1c3e
000002a0: a055 973d 62ec 093e 6424 103e bb2b c1bd
000002b0: 4001 8ebc 5377 00be e49f 8e3e 0c16 893e
000002c0: 8186 73be 02ec df3e b485 17be d556 603e
000002d0: 5ed6 dcbd 3a98 6e3e 6383 d839 fd28 a83d
000002e0: 5fa3 443d c1c1 63be 1e42 183e adf8 87bd
000002f0: 2e8e acbb fa0a 9f3d 9afb e83d 0c92 2bbe
00000300: 28cb 203e fea4 133e c2b7 98be 2305 ffbd
00000310: 9343 403e e1c4 19be 1a53 f43e 9a25 19be
00000320: ddb7 6fbd c9c8 7d3e bf80 5ebe adfc 6d3d
00000330: 5106 a23d 0f4f 683e 7285 9abc 240c 813d
00000340: 0d98 d43d 4ba4 a63e 192f a4be f0e7 073e
00000350: 929a ed3d 0b1e 6d3e ee4a 1c3e 05be 1dbe
00000360: e04c 3bbe 8246 2c3e c669 f5bd cb83 423e
00000370: 169b da3d eacd debd ae08 903e 2fc6 66bd
00000380: 422f 75be 6170 a5be 974f 8dbb 2980 1b3e
00000390: 5000 d7bd e709 803e 3364 8cbc 39d8 fb3e
000003a0: 078a c8bc 3345 fc3d 0e98 8b37 db29 4f3d
000003b0: 3102 983e d7bc 7bbe 01b6 433e 8893 c13c
000003c0: dc3e 2ebe 82b7 54bd 3795 e5bc dda9 bf3e
000003d0: ed2e e63e 609e cf3d 83e7 903e 2de6 febd
000003e0: 62f0 2c3d 9fc1 753e 690f 153e d09c 183d
000003f0: 31c0 1e3e 2ea5 aa3d f335 753e da44 c73d

linear1.bias f4 [256]
-0.23411082 0.068647385 0.3167838 0.2810503 0.21861567 -0.106137164 -0.024033967 -0.01464569
-0.054073077 -0.17922492 0.3205243 0.21912326 -0.021669755 0.27151468 -0.048756238 -0.061730735
0.05261485 -0.1445171 -0.12280542 0.035986487 0.018827593 -0.24680236 0.059834324 -0.06611965
0.2665514 -0.13003422 -0.23772734 0.18508947 -0.055265132 0.108766995 0.1658838 -0.06558936
-0.16565683 0.13288353 0.039384812 -0.029546442 -0.009036146 -0.18654041 0.15498155 -0.10516511
-0.16717708 -0.11830922 0.21957354 0.37705463 -0.21617414 -0.2456643 -0.15904371 -0.10667883
-0.19996247 -0.16280957 0.31894526 0.09782382 0.1787996 -0.050872784 -0.12971322 -0.23350203
-0.17769767 -0.048391372 0.116970405 0.18009843 0.13868226 0.05165964 -0.09010957 0.19180202
0.19587637 0.1323443 0.31371802 0.043038312 0.1220924 0.12298265 -0.04266712 -0.08534969
0.18216068 0.05930939 0.19773687 0.17393555 0.020124044 -0.28219587 0.2062503 -0.041725494
0.057816193 -0.27906796 -0.14392218 -0.2695 -0.12719859 -0.17024785 -0.2134784 0.13039912
-0.21754105 -0.07007399 -0.12206388 0.30163357 0.25244385 -0.22826326 0.20313126 0.27249894
0.038625598 0.28846824 0.036330413 0.14317818 -0.04851808 0.27370965 0.16346975 0.10955562
-0.11882134 0.26810056 -0.13597581 0.24651484 0.2659591 -0.027430777 -0.16547 -0.047070723
-0.07806543 0.13229539 0.23081934 0.31976646 0.12357377 0.115518205 0.12655745 -0.056353483
0.08213878 -0.15234466 0.21449026 0.025420127 -0.30118904 0.22845665 0.17163518 0.072229825
-0.29177082 -0.115105964 -0.02655052 -0.32500342 0.07686209 0.10828112 0.06929971 -0.19032481
0.26750293 -0.11343706 0.017480591 0.06670273 0.06381637 0.061590955 0.16522034 -0.04390829
-0.16016062 0.045168757 -0.30478334 -0.14104375 0.04697523 0.093147516 0.20401287 -0.004948484
-0.08475822 -0.05968788 -0.029329807 0.23817974 -0.14135858 0.29381356 0.16436483 -0.1699321
-0.18338111 -0.14802882 -0.0021815903 -0.09641069 -0.08626622 0.08483968 0.020665692 0.2806201
0.063764885 0.16296297 0.2211763 0.26407737 0.20138535 0.072709955 -0.047238626 0.02437205
0.19622372 0.23781958 -0.30316073 -0.17769812 0.2530294 0.14863296 0.11178548 0.21401092
-0.16499877 0.25641906 -0.16508462 0.12817653 -0.2302846 0.12407473 0.008969217 -0.18244918
0.03954064 -0.0973264 0.09638093 -0.028476745 0.31183007 0.06328258 0.18528375 0.097558
0.33337215 -0.033435777 0.057765704 0.12270176 -0.27053747 0.24717262 -0.012013339 -0.056498792
0.104873 0.27766055 0.2945633 -0.044096306 -0.20343614 0.33958513 -0.14583449 0.17958914
-0.39460552 -0.11169123 -0.006594492 -0.1153085 0.02420802 -0.07375401 -0.002263842 0.28735602
0.33185405 0.11564822 0.23456077 0.31537506 -0.02778993 0.22431432 -0.13979274 0.11574133
-0.24876967 -0.08488468 -0.06711446 0.1793722 0.26822308 -0.15484045 -0.15265556 0.1686346
0.057233144 0.12065254 0.20150077 -0.13249224 0.11217727 -0.10387456 -0.15969576 -0.30322355
0.19223182 0.29687318 -0.15594815 -0.10495666 -0.024886983 -0.07110726 -0.22256848 0.22130127
00000000: bfba 6fbe 0097 8c3d 7c31 a23e d3e5 8f3e
00000010: c9dc 5f3e 715e d9bd e2e2 c4bc 7af4 6fbc
00000020: bb7b 5dbd bd86 37be c31b a43e d961 603e
00000030: c584 b1bc f903 8b3e 9fb4 47bd 5ed9 7cbd
00000040: ab82 573d 4afc 13be 6881 fbbd 9166 133d
00000050: 533c 9a3c c2b9 7cbe d614 753d bd69 87bd
00000060: 6d79 883e b127 05be cc6e 73be 1888 3d3e
00000070: b15d 62bd 3bc1 de3d 71dd 293e b753 86bd
00000080: f2a1 29be 9f12 083e f851 213d 610b f2bc
00000090: 580c 14bc 7304 3fbe 7cb3 1e3e ce60 d7bd
000000a0: 7830 2bbe 1b4c f2bd e3d7 603e 4e0d c13e
000000b0: c15c 5dbe 6c8f 7bbe 5bdc 22be 6e7a dabd
000000c0: f6c2 4cbe 8db7 26be cb4c a33e db57 c83d
000000d0: 3e17 373e fb5f 50bd 8bd3 04be 281b 6fbe
000000e0: 61f6 35be 0836 46bd 2e8e ef3d b96b 383e
000000f0: b902 0e3e 0f99 533d 5e8b b8bd c067 443e
00000100: d193 483e 4485 073e a69f a03e f148 303d
00000110: 950b fa3d 54de fb3d b8c3 2ebd d1cb aebd
00000120: 5488 3a3e 67ee 723d 897b 4a3e 291c 323e
00000130: 2edb a43c fa7b 90be 4733 533e 5ae8 2abd
00000140: acd0 6c3d ffe1 8ebe 5660 13be e7fb 89be
00000150: 5940 02be 7455 2ebe 159a 5abe 5987 053e
00000160: 15c3 5ebe f482 8fbd a1fc f9bd b76f 9a3e
00000170: 5240 813e d8bd 69be a401 503e fb84 8b3e
00000180: e035 1e3d 1cb2 933e 33cf 143d 4d9d 123e
00000190: e5ba 46bd ac23 8c3e 9d64 273e b25e e03d
000001a0: 9a58 f3bd 7a44 893e 3e3d 0bbe 636e 7c3e
000001b0: cb2b 883e 82b6 e0bc f870 29be 3bcd 40bd
000001c0: c5e0 9fbd 7178 073e e85b 6c3e 6eb8 a33e
000001d0: 3f14 fd3d cf94 ec3d 4798 013e e9d2 66bd
000001e0: 6038 a83d 3d00 1cbe 56a3 5b3e df3d d03c
000001f0: 7335 9abe 8af0 693e 22c1 2f3e 3bed 933d
00000200: fc62 95be adbc ebbd 7a80 d9bc d966 a6be
00000210: df69 9d3d 7ec2 dd3d 02ed 8d3d 82e4 42be
00000220: 25f6 883e b051 e8bd 7533 8f3c 719b 883d
00000230: 28b2 823d cc46 7c3d 852f 293e 2ed9 33bd
00000240: 2501 24be e002 393d 900c 9cbe c66d 10be
00000250: 1969 403d 20c4 be3d c0e8 503e e426 a2bb
00000260: b895 adbd 477b 74bd 1045 f0bc 64e5 733e
00000270: 4ec0 10be bb6e 963e 414f 283e ae02 2ebe
00000280: 42c8 3bbe de94 17be 03f9 0ebb f872 c5bd
00000290: 58ac b0bd 6dc0 ad3d 194b a93c 70ad 8f3e
000002a0: 2a97 823d c4df 263e 0a7c 623e 2635 873e
000002b0: f637 4e3e f5e8 943d 4a7d 41bd e5a7 c73c
000002c0: dfee 483e fa86 733e e237 9bbe 7ff6 35be
000002d0: 128d 813e 3d33 183e c9ef e43d ae25 5b3e
000002e0: 70f5 28be 5c49 833e f10b 29be b540 033e
000002f0: bacf 6bbe e41a fe3d 9ff3 123c f5d3 3abe
00000300: 5ef5 213d 1053 c7bd 5d63 c53d 1048 e9bc
00000310: 31a8 9f3e 4c9a 813d 06bb 3d3e 7dcc c73d
00000320: c1af aa3e f4f3 08bd bb9b 6c3d 0f4b fb3d
00000330: e383 8abe d21a 7d3e 99d3 44bc 476b 67bd
00000340: a8c7 d63d 8629 8e3e 00d1 963e 549e 34bd
00000350: 9051 50be 1ade ad3e a355 15be 37e6 373e
00000360: bc09 cabe 5fbe e4bd 9c16 d8bb dd26 ecbd
00000370: e64f c63c 580c 97bd f75c 14bb 5420 933e
00000380: c6e8 a93e f9d8 ec3d b330 703e d778 a13e
00000390: b5a7 e3bc a7b2 653e d425 0fbe ca09 ed3d
000003a0: 7abd 7ebe 05d8 adbd 4e73 89bd 59ad 373e
000003b0: 8954 893e 7f8e 1ebe bd51 1cbe 8cae 2c3e
000003c0: 4d6d 6a3d ae18 f73d 3856 4e3e 0cac 07be
000003d0: 32bd e53d 2fbc d4bd 4987 23be 1e40 9bbe
000003e0: 6bd8 443e c3ff 973e dfb0 1fbe 84f3 d6bd
000003f0: c9df cbbc afa0 91bd fee8 63be cd9c 623e

linear2.weight f4 [3, 256]
-0.22575246 -0.15079321 0.05209166 0.06925842 -0.10566913 -0.071414776 -0.18692559 -0.14157656
0.103412256 -0.33604595 -0.11659812 0.072258346 -0.1434087 -0.07685782 -0.13913824 -0.17086795
0.012663421 0.042765837 -0.19983934 -0.10265932 -0.056673717 -0.21372919 0.010930765 -0.01282488
-0.017964913 0.1629499 -0.020746935 -0.13230617 -0.06302617 -0.16181949 -0.04802831 0.090113126
-0.017288562 -0.13061851 -0.09493259 -0.14309692 0.16665341 0.078735486 -0.19576043 -0.13621563
-0.18263385 -0.02457792 -0.1548283 0.090917066 0.037535675 0.20303178 0.02300012 0.10880987
0.103658564 -0.06362838 0.06273835 -0.059860595 0.1514275 -0.13146093 -0.12076778 0.0027890513
0.056456413 0.07361637 -0.11684842 -0.1533903 -0.14646743 -0.085673705 -0.13887164 0.24632111
0.0977195 0.017876869 0.09004299 0.11986863 -0.11713402 0.09680567 0.07539799 -0.19099802
-0.07562493 -0.11145935 -0.09812013 0.10471146 0.18418336 0.022751851 -0.033875655 -0.15723798
-0.20263767 -0.015435342 0.010869727 0.09199783 -0.004844673 -0.039402492 0.122714005 0.18083212
0.21443692 -0.04079671 0.14615045 -0.069659226 -0.058071338 0.030842438 0.02328448 -0.1054894
0.05381464 -0.028398436 -0.089472026 0.117885016 -0.08728656 -0.07551091 0.024060769 -0.05200962
-0.12365386 -0.032282233 -0.026679823 -0.18321235 0.026826048 -0.19243912 -0.09578778 -0.10379369
-0.0909692 0.16475874 -0.07997472 -0.038119093 -0.10042206 0.11002981 -0.16266012 0.03006439
-0.09176798 -0.069857925 0.05089893 0.18751353 0.060149163 -0.11706525 0.13068338 -0.14813991
-0.004174969 0.046592373 -0.039063405 0.046741337 -0.05796991 -0.11228268 0.01345708 -0.02777301
-0.11206238 0.030561611 0.06045539 -0.103441626 -0.14414078 -0.22404878 0.14482339 0.17287646
-0.13622293 0.063751265 -0.09316301 -0.27575752 0.2317054 0.040884092 -0.10971214 -0.1944636
-0.06426222 0.1053536 -0.20775566 0.0673166 -0.16291735 0.04811489 -0.10217001 0.0830991
0.0457782 0.17561588 -0.10919839 -0.20130348 0.03534462 -0.00010569424 0.15049705 -0.06959499
0.123942345 -0.1959802 0.026108198 -0.07778992 0.02435434 -0.12789166 0.1281455 0.03894153
-0.01872663 -0.016835056 -0.06811218 -0.14151464 0.14446503 0.15096757 -0.04002292 -0.089006245
0.15194702 0.07701877 -0.060261544 -0.13858782 -0.062799074 -0.009872718 0.01486318 -0.071232095
-0.21343067 -0.26176527 0.14978962 -0.10636419 0.016827954 0.1265793 -0.08312185 -0.14882144
-0.08469314 0.08793988 -0.21366735 -0.09505015 0.054966405 -0.05308579 -0.12544087 -0.057751425
0.054226857 -0.09078368 -0.08906107 -0.10965219 0.014614075 0.13602327 -0.055464618 -0.10444106
0.0057153474 -0.23901373 -0.15307081 -0.11835575 -0.1141304 0.04846742 0.023443129 0.05449078
0.14731872 0.09771087 -0.1191522 0.009608141 -0.009214624 -0.024728714 0.19352232 0.035393782
-0.08918427 0.10877012 0.011639054 0.08316804 0.16076285 -0.0876602 -0.17853776 -0.0471164
-0.06407175 -0.08118004 0.007297488 -0.12823918 0.099031046 -0.20317775 -0.15429914 -0.041945145
-0.11467649 0.028816741 0.011877834 0.06572933 -0.11696876 -0.07455456 0.052420154 -0.061861627
00000000: a72b 67be 8969 1abe 115e 553d 5cd7 8d3d
00000010: 0f69 d8bd e941 92bd 6c69 3fbe 72f9 10be
00000020: cec9 d33d 370e acbe ffca eebd 2ffc 933d
00000030: bbd9 12be a267 9dbd 417a 0ebe 02f8 2ebe
00000040: 3d7a 4f3c 3b2b 2f3d afa2 4cbe 0d3f d2bd
00000050: b322 68bd d3db 5abe f416 333c 721f 52bc
00000060: 272b 93bc 57dc 263e 7af5 a9bc 457b 07be
00000070: dd13 81bd 02b4 25be 55b9 44bd 3b8d b83d
00000080: bea0 8dbc dcc0 05be 056c c2bd 0088 12be
00000090: 31a7 2a3e 1240 a13d 6c75 48be 1c7c 0bbe
000000a0: 5e04 3bbe a257 c9bc 4f8b 1ebe ba32 ba3d
000000b0: 02bf 193d 90e7 4f3e bf6a bc3c b6d7 de3d
000000c0: f14a d43d 994f 82bd f77c 803d 6230 75bd
000000d0: d00f 1b3e b29d 06be 1955 f7bd 84c8 363b
000000e0: d73e 673d 2ec4 963d 394e efbd 5912 1dbe
000000f0: 8ffb 15be b275 afbd 5e34 0ebe 9a3b 7c3e
00000100: 2921 c83d 8372 923c 7668 b83d af7d f53d
00000110: f6e3 efbd 0d42 c63d 436a 9a3d fc94 43be
00000120: 3ee1 9abd cd44 e4bd 35f3 c8bd f672 d63d
00000130: 909a 3c3e 1762 ba3c 33c1 0abd fe02 21be
00000140: 4080 4fbe 84e4 7cbc f016 323c 5c69 bc3d
00000150: 10c0 9ebb 8264 21bd 7b51 fb3d 0e2c 393e
00000160: 5a95 5b3e 731a 27bd 77a8 153e 7fa9 8ebd
00000170: 36dc 6dbd 48a9 fc3c 18bf be3c d40a d8bd
00000180: bd6c 5c3d d6a3 e8bc 1c3d b7bd b36d f13d
00000190: 4cc3 b2bd 77a5 9abd 171b c53c 0a08 55bd
000001a0: 3c3e fdbd 603a 04bd a58f dabc 059c 3bbe
000001b0: 4dc2 db3c c30e 45be 622c c4bd c991 d4bd
000001c0: 0f4e babd 84b6 283e c9c9 a3bd c422 1cbd
000001d0: 15aa cdbd 4f57 e13d 6090 26be 9849 f63c
000001e0: daf0 bbbd ac11 8fbd 657b 503d 8c03 403e
000001f0: f85e 763d e8bf efbd ddd1 053e fdb1 17be
00000200: 2ece 88bb a5d7 3e3d f300 20bd d873 3f3d
00000210: db71 6dbd 76f4 e5bd 167b 5c3c 3984 e3bc
00000220: f680 e5bd 585c fa3c 12a0 773d 34d9 d3bd
00000230: a499 13be 0b6d 65be 954c 143e 8706 313e
00000240: 067e 0bbe 0690 823d 40cc bebd 1730 8dbe
00000250: 2e44 6d3e 1476 273d c2b0 e0bd 7721 47be
00000260: e99b 83bd a1c3 d73d e6bd 54be 49dd 893d
00000270: ced3 26be 1e14 453d 833e d1bd dc2f aa3d
00000280: ec81 3b3d a6d4 333e 68a3 dfbd 8022 4ebe
00000290: 85c5 103d 2aa8 ddb8 e61b 1a3e d187 8ebd
000002a0: 7cd5 fd3d 09af 48be dce0 d53c 5250 9fbd
000002b0: c182 c73c 08f6 02be 9338 033e 2781 1f3d
000002c0: 9768 99bc ace9 89bc 667e 8bbd 37e9 10be
000002d0: a4ee 133e 3e97 1a3e 13ef 23bd e848 b6bd
000002e0: 0098 1b3e 04bc 9d3d cfd4 76bd f7e9 0dbe
000002f0: cd9c 80bd 2ec1 21bc b284 733c 22e2 91bd
00000300: 928d 5abe 1906 86be 7362 193e 78d5 d9bd
00000310: c7da 893c 019e 013e ca3b aabd a664 18be
00000320: 9973 adbd d319 b43d 9dcb 5abe a7a9 c2bd
00000330: 7424 613d 7c70 59bd 9273 00be c28c 6cbd
00000340: fb1c 5e3d cbec b9bd a665 b6bd 5491 e0bd
00000350: e06f 6f3c af49 0b3e de2e 63bd 32e5 d5bd
00000360: cf47 bb3b 04c0 74be 98be 1cbe 8064 f2bd
00000370: 33bd e9bd c685 463d ce0b c03c b931 5f3d
00000380: b8da 163e a31c c83d 1206 f4bd 776b 1d3c
00000390: eff8 16bc df93 cabc b72a 463e 12f9 103d
000003a0: 3ea6 b6bd dec2 de3d bbb1 3e3c 0154 aa3d
000003b0: 049f 243e 3187 b3bd 9ad2 36be 20fd 40bd
000003c0: 0d38 83bd b941 a6bd c41f ef3b 2251 03be
000003d0: cad0 ca3d d40d 50be 9800 1ebe acce 2bbd
000003e0: 82db eabd 1611 ec3c 3f9b 423c 199d 863d
000003f0: 518d efbd 10b0 98bd 84b6 563d 9e62 7dbd

linear2.bias f4 [3]
-0.013935455 -0.1331085 -0.05372242
00000000: 8951 64bc 984d 08be 0a0c 5cbd
