model/model.pth (torch, 16787 bytes, 4 tensors)

linear1.weight f4 [256, 11]
00000000: c8e1 093f 0cbd a0bc 8bdf 22bf 0d8d 60be
00000010: 192b f43c 3dc1 7f3e 1aac 74bd 371c e03e
00000020: 46f8 683e c65a 7cbc 8064 903e 6b71 aabd
00000030: d5c5 91bd 40e9 b53d 08e0 9bbe 4121 acbb
00000040: 0fd6 593e ea5d a63e ceaa 123e 6232 453c
00000050: 50fe eabe daee 03bf eb02 8dbe d65e 373f
00000060: 82a1 c93c fdba 063e 2e61 3aba f3a5 40be
00000070: e2ae d0be c41b e43d b94f 273d 3fbf d3be
00000080: 889b c9be d44c 88be 1dbe e53e d5c3 c0bd
00000090: 8fa8 393e 7dda 92bc ffce 5e3e 0488 873b
000000a0: d67b 73be 5419 713c 9cf3 5abe 0088 cebd
000000b0: 5970 a53e 1623 9d3d fa95 c43c 6cf8 833e
000000c0: d692 f8bd 839a ac3d 2b99 86be 94b3 0bbf
000000d0: 4230 04be 1b06 99be 3d5d 3e3d 8111 2b3e
000000e0: 3edc da3d 0ccc 81be bec5 cebc 5188 4b3e
000000f0: 991f cf3b e4dd 5abe f107 bcbe 20dd 47bd
00000100: 84fe f93d e9fe af3e 05f9 95be 8d33 83bd
00000110: efb5 33be 59ed 043f a42a db3e 20dd 55bd
00000120: 100e 7cbe 6227 f0be 689d c0be 2904 083e
00000130: 4746 a93e 1e6f e53e 0ea8 213e 4a5f 373e
00000140: 9926 aabe 6ccc 803d 0e86 20bd 30fa 8a3d
00000150: 7777 093f 7752 cb3d f843 c43e fbe8 a73e
00000160: 4484 c1be 335f 013d 7bca bb3e b3d3 98be
00000170: ce44 b83e cc51 3cbc a01e 1dbf 233f 9fbe
00000180: f213 dc3e 8446 b2be 3394 7cbe 5840 823e
00000190: 6c84 2c3c dfe1 86be fb89 723e 97e4 73be
000001a0: 7445 a73e ae7a 023f f014 cbba 1bed e43e
000001b0: e22a 20be ae32 a3be e628 803e 7e3a f5be
000001c0: f766 a93d f3a6 81be f381 92be b4ea 3ebe
000001d0: 6ca2 b6bd 84f8 8b3e 214f aa3e b941 743e
000001e0: 9bd4 4e3e 13be 73bd 0778 97be cba2 4ebe
000001f0: ccc2 d1be 1955 c83e e14f 7c3e f98a 46be
00000200: 375d 07bf 200b 7bbd 7e0f a9bd 093c 36bf
00000210: 5462 583e 3239 0fbf 4344 333d efbb 1dbd
00000220: 1320 b2be dd90 203c b851 66be f0b2 193d
00000230: 553e cc3e aace c33e a125 703e 8127 b63d
00000240: f797 9bbe 98d8 db3e 0563 90be c473 45bd
00000250: 07c3 30be 2fd6 e5be a3ed bdbd b0c1 423e
00000260: 0573 cebc 52e0 293e 1471 8f3e b9ab edba
00000270: f9bc fd3c 4d8f 9e3e 72f1 b33e 5cf2 9a3c
00000280: 0885 4fbe b63e a8be 8ddc acbe 44ef 533d
00000290: fcff 603e 4ebb e13e 07f1 b3be e98f 713e
000002a0: e690 753d dd08 5c3e eecc fe3b 33a7 4dbe
000002b0: 8dac cc3d b983 09bd 2016 923e c249 a73e
000002c0: ac2c 94be a8cb f43e 0c5b a4be ea78 8f3e
000002d0: 7f26 32be 099a 343e 3143 21be ec40 adbc
000002e0: 5f3b a8bd db38 aabe b6ba 993d e6fe 34be
000002f0: b315 babc f77b f03c b2e3 583e 9812 abbe
00000300: 0dce 873e 07d0 0cbe 772c debe 3cf1 d3be
00000310: 65d0 813e ce25 9dbe 72ac fe3e b69d 7dbe
00000320: 8a56 13be e2ef 483e 4398 59be 02c0 203e
00000330: 6eb0 0f3c 4bbf 473e c63f 5abd d16b 823d
00000340: 4440 473e a185 8d3e 6be9 30be a78d 8c3e
00000350: d391 0e3e 6c83 283e d627 473e ce30 a4be
00000360: c608 06be 5d39 843e 3c2a 06be 5057 8b3e
00000370: a02c 28bc 60cc 89bd 4978 f83e 4c43 4fbe
00000380: 9290 b1be 4bd5 96be 8087 dd3d d5e4 a53e
00000390: cc8d a3bd 2508 cd3e 4f0f 87bd b17e 123f
000003a0: 708f 813c dfcd 9abd cdb6 aabd 1950 f13d
000003b0: d8de d23e 9ac6 c2bd aaa7 a43e a3e0 c73d
000003c0: 6939 48be d3be 55be 8c7b e6bd 3b2a d73e
000003d0: d1a2 0a3f e8b3 e33c e7c6 323e 656a 79be
000003e0: 832e 3bbd c34f d13e 9212 283e 077f 5f3d
000003f0: 19b6 163e d322 a4bd 495b 913e 5b31 d13d
0.5386014 -0.019621395 -0.6362235 -0.21928807 0.029805707 0.24976058 -0.05973444 0.43771526
0.22750959 -0.015402501 0.28201675 -0.08322414 -0.071178116 0.088823795 -0.3044436 -0.0052529876
0.21273063 0.32493526 0.1432297 0.012035938 -0.4589715 -0.51536334 -0.2754129 0.71629083
0.024613146 0.13157268 -0.0007109818 -0.18813305 -0.40758425 0.111381084 0.040847514 -0.41356847
-0.39376473 -0.26621115 0.44871607 -0.09412352 0.18130706 -0.017926449 0.2175865 0.0041360874
-0.23777708 0.014715511 -0.21381992 -0.10084534 0.32312277 0.07672708 0.023997296 0.25775468
-0.12137382 0.08427908 -0.26288733 -0.5457089 -0.12909034 -0.2988747 0.046475638 0.16705896
0.10686539 -0.25350988 -0.025240775 0.1987622 0.0063209054 -0.21373707 -0.3672481 -0.048794866
0.12206748 0.3437417 -0.2929155 -0.06406317 -0.17549871 0.51924664 0.4280597 -0.052212834
-0.2461474 -0.46905047 -0.3762009 0.13282837 0.3306143 0.44811338 0.15786764 0.17907444
-0.33232573 0.062889904 -0.039190345 0.06786001 0.53697914 0.09927838 0.38333106 0.32794937
-0.37796223 0.03158493 0.36677918 -0.29849014 0.35989994 -0.011494111 -0.61374855 -0.31102857
0.42983967 -0.34819424 -0.24665909 0.25439715 0.010529619 -0.263442 0.23685448 -0.23817669
0.32670176 0.50968444 -0.0015493911 0.44712147 -0.15641358 -0.31874603 0.25031203 -0.47896188
0.08271592 -0.25322685 -0.28614768 -0.1864422 -0.08917698 0.2733804 0.33263496 0.23853196
0.2019829 -0.05950744 -0.2958376 -0.20179288 -0.4096893 0.39127424 0.24639846 -0.19388951
-0.5287661 -0.061289907 -0.08254908 -0.71185356 0.21131259 -0.5594665 0.04376627 -0.038509306
-0.34790096 0.009800163 -0.2249211 0.037524164 0.39891306 0.3824361 0.23451854 0.088942535
-0.30389377 0.42938685 -0.28200546 -0.048206106 -0.17261897 -0.44889972 -0.09273841 0.19019198
-0.02520133 0.16589478 0.2801596 -0.0018132842 0.030973898 0.30968705 0.35145146 0.018914394
-0.20265591 -0.32860345 -0.33762017 0.051741853 0.2197265 0.44088215 -0.35144827 0.23590054
0.05995264 0.21487756 0.0077758944 -0.20083313 0.09993849 -0.033572886 0.28532505 0.3267346
-0.28940332 0.47811627 -0.32100713 0.28021938 -0.17397498 0.17636885 -0.15748288 -0.021149121
-0.08214449 -0.33246502 0.075063154 -0.17675361 -0.022715425 0.029355986 0.21180609 -0.33412623
0.26524392 -0.13751231 -0.433933 -0.41394985 0.25354305 -0.30692905 0.4974094 -0.24767193
-0.14388481 0.19622758 -0.2124949 0.15698245 0.008770091 0.19506566 -0.053283475 0.063682206
0.19458109 0.27641013 -0.17276542 0.27451822 0.13922815 0.16456383 0.1944879 -0.32068485
-0.13089284 0.25825015 -0.13102049 0.27215052 -0.010264546 -0.067284346 0.4852927 -0.20240515
-0.3468061 -0.29459605 0.1081686 0.32401147 -0.0798603 0.40045276 -0.06594717 0.57224566
0.015815467 -0.07558798 -0.08335648 0.117828555 0.4118564 -0.095105365 0.32159168 0.09759643
-0.1955315 -0.20873575 -0.112540334 0.42024407 0.5415469 0.027795747 0.17458688 -0.24356993
-0.045698654 0.40881166 0.16413334 0.054564502 0.14717902 -0.08014455 0.28389958 0.10214492

linear1.bias f4 [256]
00000000: db21 7ebe bb52 11bb 59e6 943e 848c c53e
00000010: b27d 403e 0283 14be 78a5 8dbd 3bed 4ebe
00000020: 2e79 f9bc 04f2 67be 4be9 86bd 9a5e e43e
00000030: a93a 0abe 7f4f b23d 4371 07bd 44f6 39be
00000040: 0828 70bd 3f7b 0bbe 798a 51be e333 9cbd
00000050: 370e 4bbd f97e 77be 1736 11be b9f2 91bd
00000060: bd60 f73d 35c3 d0bc 6e1d d7be fdd9 acbd
00000070: e219 d5bc fb4d 50bc 5642 45bd fc96 393d
00000080: 374e 3dbe bb6b 843a bfe8 1dbd cd2c 24be
00000090: ae55 94bd 6720 21be f22e f83c b7f7 4cbe
000000a0: d01d 92be 0a4c 65be 81dd c9bb f17b d43e
000000b0: 19e2 79be df67 2fbe cb6b dbbd 7b27 b0bd
000000c0: eb4d 1fbe 6bf7 3ebe 1388 7c3e fd7b eebc
000000d0: eded 333e 36df 8abd 1994 6bbe 34f7 7bbe
000000e0: 7693 02be 2c5e 01be 4caa 4c3d 1625 213d
000000f0: 8fb5 8abe 4d47 0ebc 304c f7bd fa91 983e
00000100: fc18 923e 1bcc 873d 9132 cf3e d6d4 433e
00000110: 28a4 0ebc 95da db3d e897 653e 5cd9 fabd
00000120: a0b9 493d ee8e a13a 6ffe 2cbd bc05 683e
00000130: c61b d0bd dda0 2ebe 8689 f83d a0ea 10be
00000140: e9a5 6f3b 391e a4be f53e 13be 4fcb a0be
00000150: 7e89 4bbd 7455 2ebe 2b75 073d c53c 8a3e
00000160: 228a 52be 6f8e 00be a7ac f13c 1f4e edbd
00000170: 938a b93d 191c 6ebe c7f4 d43d bf75 a2bd
00000180: 92c2 5cbd 6b23 483d 7618 59be edeb 7f3e
00000190: 451b 6abe 726d 673e 8216 da3c fbe3 69be
000001a0: 2f4e 4ebe e78c 713d 5797 ecbd 743c aa3d
000001b0: dfd9 e33d 3823 0ebe c49b 1bbe 3db0 03be
000001c0: a480 9cbd e5cf b93d dc08 32be 8331 083e
000001d0: d481 8abe 484d f73d d97d a3bc 6625 993e
000001e0: f32b b9bd 12d3 0bbd d2e7 6e3d 42bf 153e
000001f0: a97f b0be f2cb 0fbe cbf3 403e 492f 20be
00000200: 4ee0 a3be 33fa dcbd a7d0 3cbe 0711 d9be
00000210: baae 7a3c ce2c 8ebd 2159 3e3d e7e3 3ebe
00000220: 6ab5 b43d 65d5 87be d1ec 1a3e 60d4 1abd
00000230: 85ae b7bd c970 1f3d 0462 523e 7735 b03d
00000240: 5cb3 57be 2a1f 2d3d d93e a3be ddb3 55be
00000250: c1f0 8e3e cd34 003e 6661 04be 9b5e e43c
00000260: aaaf fd3b 52fd 183e 17d8 03be 1173 a73e
00000270: 0001 1cbe f6fd 873e 1778 67bd 2a6b 5bbe
00000280: 848c 8abd 4830 c8bd dedc 80be 4d60 f9bd
00000290: 6aa1 d4bc 9da1 483c 49e7 883d 88df 40be
000002a0: f7a2 4f3e d33c 8b3c 5598 f13e 7135 a73d
000002b0: bd2e e23d f0b9 ad3d d923 393d cbaf 4cbd
000002c0: 291e 8f3e 38ed 733e 8975 5abe fc50 85be
000002d0: 4350 873e 7166 353e 0c65 5abd fb70 163e
000002e0: 32c8 8dbd 93fb 7c3e fdb3 b7bd 2b3a b6bd
000002f0: 37b9 7abe 4251 773d 5297 053e 1261 64be
00000300: 59d9 8ebd 8555 25be e87a e03d 4951 0dbd
00000310: d859 c73e 3817 e43e 5378 9f3d 5c98 02be
00000320: 94af 8fbe 27a9 163d ae36 17bd 662e 31bd
00000330: 20fb 3ebe aead c73c 23cd 43be 295d 93bd
00000340: 1ab3 0d3e d6b7 18be ee16 683d a45a 89bd
00000350: 9051 50be 920a cf3e d604 91be 7233 bcbe
00000360: 14f2 debe 9041 99bd bbb5 13be 8d84 2bbe
00000370: f443 c3bc 580c 97bd 0c59 963d f95a 533e
00000380: b999 cf3e f0b2 043e 3902 a23c 98dc a33e
00000390: 1c54 cbbd 9aca 963e 3893 0dbd fb65 df3d
000003a0: 31f1 b0be 8f24 da3b 4e73 89bd fb37 883e
000003b0: d08f d03e 5104 3fbe 5b46 77be 9747 9a3d
000003c0: 0d0d e8bd b821 9c3a 4583 ad3d 1827 aabe
000003d0: c481 5a3e bd9e c2bd 82c6 c5be 807d 90be
000003e0: bf41 b5bc 86ec 653e d4f8 1abe 1eaa bebd
000003f0: b7d5 65be 71a8 9a3e 991e f2bd 6e7e ca3d
-0.24817602 -0.0022174555 0.2908199 0.38583767 0.18797949 -0.145031 -0.06916326 -0.20207684
-0.03045329 -0.22650915 -0.06587466 0.44603425 -0.1349894 0.08706569 -0.033067 -0.18160349
-0.058631927 -0.13621233 -0.2046298 -0.07627084 -0.049574103 -0.2416953 -0.1418079 -0.07126374
0.12078998 -0.025483707 -0.4201464 -0.084400155 -0.026013318 -0.0127139045 -0.048158966 0.045310006
-0.18486868 0.0010102907 -0.038552042 -0.16032715 -0.072429046 -0.15735017 0.030295823 -0.2001637
-0.2853837 -0.22392288 -0.0061604385 0.4150081 -0.24402656 -0.17129467 -0.10713919 -0.0860128
-0.15557067 -0.1864907 0.24661283 -0.029111857 0.1757123 -0.06780855 -0.23005714 -0.2460602
-0.12751564 -0.1263358 0.049967095 0.03934201 -0.27091643 -0.008683992 -0.120750785 0.2979887
0.28534687 0.06630727 0.40468267 0.19124159 -0.00870613 0.107350506 0.22421229 -0.12248489
0.04924929 0.0012325922 -0.042234834 0.22658437 -0.10161547 -0.17053552 0.121356055 -0.14152002
0.0036567396 -0.32054308 -0.14379485 -0.31405112 -0.04969167 -0.17024785 0.033070724 0.26999488
-0.20560506 -0.12554334 0.029501272 -0.11587166 0.09059634 -0.23252906 0.1039825 -0.079326145
-0.053896494 0.048861902 -0.21200737 0.24992342 -0.22861965 0.22600344 0.02662206 -0.22840874
-0.20147012 0.058972266 -0.11552303 0.08312312 0.1112554 -0.13880622 -0.15196139 -0.12860198
-0.07641724 0.09072856 -0.17386192 0.13300137 -0.27052176 0.12075287 -0.01995747 0.29911345
-0.09041586 -0.03413684 0.05832655 0.1462374 -0.34472397 -0.14042643 0.18843 -0.15643038
-0.32007068 -0.10789909 -0.1843897 -0.42395803 0.015300447 -0.069421396 0.04647172 -0.18641625
0.088236645 -0.26529995 0.15129401 -0.037800193 -0.08968834 0.03892592 0.20545202 0.086039476
-0.21064514 0.04226605 -0.31883886 -0.20869394 0.27918056 0.12520142 -0.1292778 0.027877143
0.007741888 0.14940384 -0.128754 0.32704976 -0.15234756 0.26560944 -0.05651101 -0.21427599
-0.067650825 -0.09774834 -0.25168508 -0.12176571 -0.025955874 0.012245563 0.06684739 -0.1883527
0.2027701 0.016996777 0.47186533 0.0816449 0.11044071 0.084827304 0.045200203 -0.049972337
0.27952698 0.2382096 -0.21333899 -0.2603835 0.26428422 0.1771486 -0.053319022 0.14691536
-0.0692295 0.24705343 -0.08969877 -0.088978134 -0.24484716 0.060380228 0.13046005 -0.22302654
-0.069750495 -0.16145904 0.109609425 -0.034501348 0.38935733 0.44548965 0.07786622 -0.12753433
-0.28063643 0.03678241 -0.03691738 -0.04325714 -0.18650484 0.02437481 -0.19121222 -0.07195503
0.13837853 -0.14913878 0.056662492 -0.067067415 -0.20343614 0.40437752 -0.28324002 -0.36758
-0.43544066 -0.07483208 -0.14424793 -0.16749783 -0.023836114 -0.07375401 0.07341203 0.20640172
0.4054697 0.12958884 0.01977645 0.32004237 -0.09928152 0.29451448 -0.034564227 0.10908123
-0.34559014 0.00665719 -0.06711446 0.2660521 0.4073472 -0.1865399 -0.24147932 0.07533186
-0.11330614 0.0011911904 0.08472303 -0.3323295 0.21338564 -0.09502933 -0.38628012 -0.2822075
-0.022126077 0.22453508 -0.15133983 -0.09309791 -0.22444807 0.30206636 -0.11822242 0.09887396

linear2.weight f4 [3, 256]
00000000: d295 20bf 7642 24bf d89c 6f3e 1b1c 583e
00000010: ff5b 71be 2ac4 51be 1ab3 15bf 1103 6abe
00000020: b24f 913e 4a9a 27bf 0e19 21be 4134 cb3e
00000030: 7cfc 85be e5f6 4dbd 3b76 95be 7fca 5dbe
00000040: 9af2 cfbc 38e2 673e 6a58 33be 8e26 f0bd
00000050: a1c2 7ebe a169 bfbe 3930 99bc 243f 7b3e
00000060: 561b 93ba c628 0c3e ff0d 023d 935e 41be
00000070: e0dd bbbe a73f 1cbe 0433 d0bd 9364 803e
00000080: c2e3 09be f454 4dbe 3c1c f6bd 1c37 61be
00000090: 5a04 383e e77b 173d 290d 5fbc 78e2 1ebe
000000a0: 6384 c3be 35ed 83bc b5c5 2fbe d2ea 5f3e
000000b0: 9b64 ad3c 309d 753e 6f21 ea3d e304 7d3e
000000c0: 0dd6 d13d 1608 94be b6bb 303e 688f 59be
000000d0: 8d37 933e 3450 dcbe 794b 10bf 84c8 363b
000000e0: 4537 66bc dd46 143d 3682 7dbe cef7 46be
000000f0: 51e6 43be d6fd 473e e77e 97be 14f0 8d3e
00000100: c8ed 003f 7ad9 1c3d 053b a23e c2a1 ca3e
00000110: 606e c1bd 76c2 2a3e 6f47 7c3e 7ba5 f5be
00000120: 6d37 54be e90f 0bbf 5fff 1dbd 0842 9b3e
00000130: 6ead 573e e00f 6a3e eeb1 9abe 7839 25be
00000140: c23d acbe 7de0 863c 8e52 063d 39a8 203e
00000150: 779b 9b3d 8264 21bd fe95 cc3e c9f9 de3e
00000160: 340b df3e d676 babe e075 ab3e 0188 edbd
00000170: e990 683b 0e8f 0ebd 4f6f 7c3d 2f4f 1abe
00000180: 0cb9 e03d 598c b0ba d66c 7abe a490 7f3e
00000190: 888a 2bbe 1853 8c3c 3fb8 3e3d d400 c8bd
000001a0: 0137 b8be 2585 8d3c 02c8 113e a4f6 23be
000001b0: f217 a1ba ad43 c6be f40c 82be 2c5b 9dbe
000001c0: fd85 4bbe b43e 8a3e 92ca 4abd be48 6dbd
000001d0: f46c 54be 94e9 9b3e 6de5 74be 955d ad3e
000001e0: dbdb 17be e106 8abe 0c53 babc 10a0 143f
000001f0: f85e 763d eaf6 e83b c6bb b83e 58cb 4ebe
00000200: 2ece 88bb 0902 0a3e ea3d 75bd 45b9 a43e
00000210: 373c 0cbe 8dc7 25bc 9411 373d 4246 23be
00000220: 82ed 65bd e425 e2bc 7180 b13e e90b a5bd
00000230: 8ab2 ffbd 57c4 18bf 74f3 e33e b797 cc3e
00000240: 66ab 0fbe b747 be3d 24de 2fbe afba 02bf
00000250: c38a e93e 0840 9a3d 2dfa f9bd a36f 03bf
00000260: 86b7 3dbe a612 ae3e 161a bfbe 6336 7f3e
00000270: 3c1c 1fbe 581d 403e b279 95bd 1069 793e
00000280: 795d 883e f6ee d73e f572 42be 8a02 d8be
00000290: 2dab 743e 30c5 99bd c4a3 483e 13dc f6bd
000002a0: 0dd5 c43e 35bf acbd e508 793e 8388 9fbd
000002b0: 102a de3d 651c d8be ece0 ec3e 2764 673d
000002c0: e08e 073e f467 133e 2a27 8abe 502b acbe
000002d0: 6d0e b43e 89f1 903e ff76 3dbe 51f8 b1bc
000002e0: 1f2b b13e 8c9d 4d3e cd4d 00bf 99a2 aebe
000002f0: 4118 2fbe d9f3 a63d 0ba7 d2bc 40c9 75be
00000300: d586 3bbe 4592 06bf d03d 963e dad0 79be
00000310: 6b69 213e 6881 863e 2f82 93bd d640 35bd
00000320: 3a49 70be 34db 7b3e 6de5 bcbe 33cd 65be
00000330: 6d83 803e bcc5 d73b 828c 2cbe b654 72be
00000340: 21da de3d 7512 71bc b403 0cbd 7265 cbbe
00000350: e06f 6f3c e561 e03e 651c 86be 1468 2fbe
00000360: 064d 7abb 911e 42bf 8ad4 8cbe 02e2 ecbe
00000370: 8b94 d9be c685 463d 1837 d03e 1316 6c3d
00000380: fe5b 953e 760e 2a3e 420f cabd 3f18 1c3e
00000390: 2cb0 873c fb03 c93d 145b ae3e 75f9 153e
000003a0: d041 abbe 8420 cb3e bbb1 3e3c b2a8 923e
000003b0: aa92 ac3e 824c 68be 28de f5bd 2208 ccbd
000003c0: 044c cbbd 9d59 083d 496b d13c bb62 44be
000003d0: 51c9 d63e 36af 0bbf 2cad 5dbe 7610 fcbd
000003e0: a8fe a93a ed85 df3d a99e 673e 838b 683d
000003f0: 084a 6ebe 86d0 893e d023 873d 1def bfbd
-0.6272861 -0.6416391 0.23399675 0.21104471 -0.2357025 -0.20484987 -0.5847641 -0.22852732
0.28381115 -0.654698 -0.15732214 0.39688304 -0.26169193 -0.050284285 -0.29191765 -0.21659277
-0.025384236 0.2264489 -0.17514196 -0.11726104 -0.24878933 -0.37385276 -0.018699752 0.24535805
-0.0011223357 0.13687429 0.03175163 -0.18883733 -0.36692715 -0.15258656 -0.101659805 0.25076732
-0.13465789 -0.20051938 -0.12017104 -0.21993679 0.1797041 0.036983397 -0.0136139775 -0.15516078
-0.3818694 -0.01610432 -0.17165263 0.2186692 0.021166136 0.23985744 0.11432158 0.24708895
0.10245905 -0.2891242 0.17259106 -0.21246111 0.2875332 -0.4302994 -0.5636516 0.0027890513
-0.014051263 0.036200393 -0.24756703 -0.19430467 -0.19130827 0.19530424 -0.29589006 0.27722228
0.50362825 0.03829334 0.31685653 0.39576536 -0.094448805 0.16675743 0.24636625 -0.47977814
-0.20724268 -0.5432115 -0.03857362 0.30323815 0.21062252 0.22857618 -0.30213875 -0.16135204
-0.33640867 0.016464466 0.032793574 0.15689172 0.07598012 -0.039402492 0.39958185 0.43549946
0.43563235 -0.3641879 0.3348837 -0.11598206 0.0035486764 -0.034804396 0.06162959 -0.15069269
0.10972795 -0.0013469561 -0.2445558 0.2495752 -0.16752064 0.017129466 0.04656243 -0.09765783
-0.35979465 0.017275402 0.14236453 -0.16012055 -0.0012290461 -0.38723508 -0.25400507 -0.3073362
-0.19875331 0.27000964 -0.049509592 -0.0579307 -0.20744687 0.30451643 -0.23915644 0.3386046
-0.14829962 -0.26958373 -0.022744678 0.58056736 0.060149163 0.0071095126 0.3608076 -0.20194757
-0.004174969 0.13477339 -0.0598735 0.321726 -0.13694845 -0.010118377 0.0446945 -0.1594477
-0.05613471 -0.027605958 0.34668306 -0.08058912 -0.124852255 -0.5967459 0.44521677 0.399595
-0.14030227 0.09291022 -0.17174584 -0.51066107 0.4561368 0.07531744 -0.1220592 -0.5134222
-0.1852704 0.33998603 -0.3732459 0.2492309 -0.15538114 0.18761194 -0.07298602 0.24356484
0.26633814 0.421745 -0.18989165 -0.42189437 0.23893423 -0.07508314 0.19593722 -0.120536946
0.38443795 -0.08434907 0.24319799 -0.077897094 0.108478665 -0.42209163 0.46265352 0.056491997
0.13238096 0.14395124 -0.26983005 -0.33626795 0.35167256 0.28309277 -0.18502425 -0.021724852
0.3460321 0.2007963 -0.50118715 -0.34108427 -0.17099096 0.08151979 -0.025714418 -0.24002552
-0.18313153 -0.5256694 0.29344034 -0.24396077 0.1576287 0.26270604 -0.07202565 -0.044251285
-0.23465434 0.24595338 -0.36893788 -0.22441559 0.2510027 0.006584851 -0.16850474 -0.23665127
0.108814485 -0.014713873 -0.03418322 -0.39725834 0.014614075 0.43824688 -0.26193538 -0.17129546
-0.0038192882 -0.7582789 -0.27505904 -0.4626618 -0.42496142 0.04846742 0.40667033 0.05763824
0.29171747 0.16607079 -0.098661914 0.15243624 0.016563497 0.09815212 0.34053862 0.14645942
-0.33448648 0.39673245 0.011639054 0.2864433 0.33705646 -0.22685435 -0.120052636 -0.09962489
-0.09926608 0.033288587 0.025563853 -0.19178288 0.41950467 -0.54564226 -0.21648091 -0.12307827
0.001296957 0.10914216 0.22619118 0.056773674 -0.23270428 0.26916903 0.065986276 -0.09371779

linear2.bias f4 [3]
00000000: 9ea9 323e 02e1 c2bd 7798 183d
0.17447516 -0.09515573 0.037254777
